tests/samanta.tflite (tflite, 206964 bytes, 9 tensors)

arith.constant f4 [1, 32]
000000 9a bf 33 bd 2c 43 d3 3d 3d f9 9b be c1 48 e5 3d
       -0.043883897 0.103155464 -0.3046359 0.11195517
000010 0f a3 a3 be 8f fd c4 3d 91 ba a5 be 82 bf ac be
       -0.3196034 0.09618675 -0.323689 -0.3373986
000020 80 4d e2 3d dc 59 39 3d d2 8e 2c 3e 3c 4d ae be
       0.11049938 0.045251712 0.16851357 -0.340433
000030 1b ed 4c 3e 64 4a a1 be 92 05 b1 be 20 33 cb bc
       0.20012324 -0.31502068 -0.34574562 -0.024804652
000040 60 c6 99 bc 41 03 fe bc 80 a7 a5 be 16 3e d2 3d
       -0.01877135 -0.031007411 -0.32354355 0.10265748
000050 31 37 ac be 4e 92 46 bd ce 1e 76 3d 71 e3 9e be
       -0.33635858 -0.04847937 0.06008797 -0.310329
000060 1e 36 25 3e 17 7d 28 3d 9d 66 1a bd d7 51 1b 3e
       0.16133925 0.04113492 -0.037695516 0.15167938
000070 84 a8 89 bc fe 38 0e bd 7c bf 0a 3e 69 41 c6 3d
       -0.016803987 -0.03472232 0.13549608 0.09680445

arith.constant1 f4 [32, 32]
000000 95 76 bc bd 29 85 9a 3d 82 d4 d9 bc 45 65 c6 3c
       -0.09202305 0.075449295 -0.02659059 0.024218211
000010 32 70 0f 3e 95 d5 94 3d 9c 00 02 be fc aa f1 bd
       0.14007643 0.072673 -0.12695545 -0.11800191
000020 96 0d 03 be 9f 0c 24 3e 2e 2c 95 3d e1 c8 88 3d
       -0.12798151 0.1602044 0.07283817 0.066789396
000030 9d f5 21 3c 8c 9f f6 bc ba 72 84 bd 39 3c 24 bd
       0.009885219 -0.030105375 -0.06467195 -0.040096495
000040 fb a5 1f bd 9b 83 e9 3d 96 48 09 3e 26 08 09 3b
       -0.03897665 0.11402055 0.13406596 0.0020909398
000050 33 94 67 bd 78 c5 ef bd c2 df e1 3d fc 75 b0 3d
       -0.05653782 -0.11707586 0.110290065 0.08616254
000060 a2 61 eb bc f4 7d 34 3d d5 b4 a5 bd 85 02 07 3e
       -0.028733078 0.04406543 -0.080911316 0.13184555
000070 2f f2 3f bd a3 97 44 bd 78 5f 15 be 39 12 e0 bd
       -0.046861824 -0.047996175 -0.145872 -0.10940976
000080 67 ab 37 bd 41 e8 d2 3c 19 7b bf bd 46 f2 f0 bd
       -0.044841196 0.025745513 -0.09349651 -0.1176496
000090 f0 e1 74 bd d9 c5 0b be bf e0 1a be b2 1f 95 3d
       -0.059785783 -0.13649692 -0.15124796 0.07281436
0000a0 50 1a 69 3c b8 b1 1a 3d a8 ff b7 3d 64 6c c7 bd
       0.014227465 0.037767142 0.089843094 -0.09737471
0000b0 4a db 3d 3c 92 1b 0e 3e 50 20 2e be f7 1a 46 3e
       0.011587927 0.13877705 -0.17004514 0.19346224
0000c0 bb 61 17 bd 85 cb 21 3e aa d1 27 bd 2c 48 92 3d
       -0.036958437 0.15800293 -0.040971436 0.07142672
0000d0 46 c8 fb bb 62 54 07 3e 9f d4 b0 3d ab 62 f2 bd
       -0.0076837866 0.13215783 0.08634304 -0.11835226
0000e0 b7 19 e0 3d 38 b0 db 3b e8 dd a5 bd 12 d5 c4 3d
       0.10942405 0.0067043565 -0.08098966 0.096109524
0000f0 89 e9 57 3d 9d 87 44 be bc 12 ae 3c 5e a6 03 bd
       0.05271295 -0.19192357 0.021249168 -0.032141082
000100 54 5c 04 3e a5 b5 39 bc b4 e1 eb 39 12 ef 23 bd
       0.12925845 -0.011334811 0.00044990855 -0.040022917
000110 42 7a 96 bd 29 0b 28 3e f5 40 be 3c 41 34 58 3e
       -0.073475376 0.16410507 0.023224333 0.21113683
000120 1f a6 8b 3d 01 6e 94 3d 95 30 e8 bd 23 f8 13 be
       0.068187945 0.07247544 -0.11337391 -0.14450125
000130 ad 60 6e bc a4 ce 27 3d 1c b4 12 3e ee a7 b1 3d
       -0.0145494165 0.040968552 0.14326519 0.08674608
000140 0a 50 25 be 5d 56 96 bd 35 2f 06 3e d7 d4 8b 3d
       -0.16143814 -0.07340691 0.13103946 0.06827705
000150 89 4d 0b be a1 a7 d6 3d 07 37 55 bd 7c cf f0 3d
       -0.13603796 0.104811914 -0.05205443 0.117583245
000160 cb 76 90 3d 57 8b 04 be a8 56 c7 bd 96 45 e6 bc
       0.07053908 -0.12943779 -0.09733325 -0.028109353
000170 87 69 1d 3d 9f 9f a6 bd e2 f4 be bd 8f e0 98 bc
       0.038430717 -0.08135914 -0.093240514 -0.018661765
000180 81 1a d7 bd 97 ab b8 bd 4c aa 50 bd 5e 79 1e bd
       -0.10503102 -0.09017103 -0.050943658 -0.038689964
000190 27 37 f3 3b e0 79 ee bc 91 97 fb bd 7e e6 86 3d
       0.007422346 -0.029110849 -0.122847684 0.06586932
0001a0 23 2f b1 bc a1 2c 85 3c aa 7d e5 3c aa 85 2a 3c
       -0.021628922 0.016256632 0.028014023 0.010407845
0001b0 a7 28 8c bd 56 df 87 3d 77 49 11 be b9 bb 16 3e
       -0.06843691 0.06634395 -0.14188181 0.14720048
0001c0 50 22 17 3a 90 82 46 bd 13 80 c7 bd 08 c9 d7 bd
       0.0005765306 -0.048464358 -0.09741225 -0.105363905
0001d0 aa a3 24 bc 42 07 4d bd af b8 92 bd 4e 8f e2 3d
       -0.010048786 -0.05005575 -0.07164132 0.110624894
0001e0 b8 e2 35 3e fa a0 2e 3d 8a e7 ce 3d c8 b1 ea bd
       0.17762268 0.042633988 0.10102756 -0.1145969
0001f0 2f 4e 17 3e 18 7b 3f 3c 88 93 11 3e 8a 1b b5 bd
       0.14775918 0.011687063 0.14216435 -0.08843143
000200 f5 43 fd bc 7b 64 b4 bd 60 29 b6 bd c7 26 14 3e
       -0.030916194 -0.08808228 -0.088946104 0.14467917
000210 3d 15 a1 bc 60 b3 4a 3d 11 8d 30 3e 4c 72 26 3e
       -0.019663448 0.04948747 0.17241313 0.16254538
000220 fb 72 0f 3d f4 ab 0e bc a2 d3 19 be 0d 41 11 3a
       0.035021763 -0.008707989 -0.15022138 0.00055410044
000230 43 21 e1 bd dd 1c 56 bc e3 78 24 3d b7 da c6 bd
       -0.10992672 -0.013068405 0.04015435 -0.09709685
000240 60 41 d5 3d 1c 8b 14 3e 4d 02 e7 3d 3e 93 ec bd
       0.1041286 0.14506191 0.11279736 -0.11551522
000250 7a 39 b7 3c 4a 3c 98 bc ef 08 51 3c 6b 01 2e 3e
       0.022366274 -0.018583436 0.012758478 0.16992728
000260 19 00 00 bd c7 eb 19 bc ca d6 c8 bc 92 a3 9f bd
       -0.031250093 -0.009394593 -0.024516482 -0.077948704
000270 04 a1 f6 bb 4c d4 90 3d 95 4c 00 be ed b6 2d be
       -0.007526519 0.070717424 -0.12529214 -0.16964312
000280 a7 af 55 bd 3d 12 85 bc 48 c8 f6 bd af e0 10 be
       -0.05216947 -0.016244048 -0.12049919 -0.1414821
000290 98 39 13 3e 29 d8 d2 bd 83 92 62 3d 75 3f b0 ba
       0.14377439 -0.102951355 0.055315506 -0.0013446646
0002a0 7d 26 a6 3a a0 94 e4 3d 4a 06 0d be 96 d1 cb b9
       0.0012676265 0.111611605 -0.1377193 -0.0003887533
0002b0 e7 43 31 3e 33 a1 e8 3b 09 4f c8 bd 9a d5 2c 3e
       0.17311059 0.0070992946 -0.097807 0.16878358
0002c0 25 74 b0 bd 65 c5 6f 3d 63 93 28 3c 49 bf 20 3e
       -0.08615903 0.05853786 0.010289046 0.1569797
0002d0 9d 32 0f 3e f3 62 95 bd e7 c4 8f bc 67 77 26 3e
       0.13984151 -0.07294264 -0.017549945 0.16256486
0002e0 8e 0e 1f be 58 cf 10 3e 9d 40 1a be 18 22 c0 bd
       -0.15532896 0.14141595 -0.1506371 -0.09381503
0002f0 7c a3 c6 bc 46 16 e4 bd 07 74 29 be e8 3f 34 bc
       -0.024247877 -0.11137061 -0.16548167 -0.011001565
000300 08 d1 87 3d 60 c9 8f 3d 02 81 83 3d f4 15 14 3e
       0.066316664 0.07020831 0.06421091 0.144615
000310 c7 1d e8 bc e3 cf b5 bd 50 6f 57 3d d2 07 ea 3d
       -0.028334511 -0.08877542 0.05259639 0.11427273
000320 13 b4 40 3d 38 0c 23 3e dd 64 29 3d 01 8d 11 3e
       0.047046732 0.1592263 0.041355956 0.14213945
000330 e0 c7 7b 3d d3 65 da bd 9e 77 42 bc da 7b 08 be
       0.061469913 -0.10663953 -0.011869339 -0.13328496
000340 47 72 39 3e cd 6c e5 3d 4d 56 b7 bd 44 b3 77 3d
       0.1811 0.11202393 -0.089520074 0.060473695
000350 27 f3 fc 3d 6a b7 17 be d0 39 23 3e 5a 45 a0 bc
       0.12351065 -0.1481606 0.15940022 -0.01956432
000360 35 6d 56 3b 46 88 8e bd fc 47 2e bd 94 40 c5 bd
       0.00327189 -0.06959586 -0.04254912 -0.09631458
000370 a4 c1 9c bd c4 72 8d 3d e0 3c 13 be c0 37 0f be
       -0.076541215 0.069066554 -0.1437869 -0.1398611
000380 66 a5 ef bb 59 c3 d0 bc c4 a0 77 bd 55 8c 30 3e
       -0.007313418 -0.025483774 -0.060456052 0.17241032
000390 d8 bc 34 be 5c 4e b8 3d b1 2d ef bd 7b 61 03 bd
       -0.17650163 0.08999321 -0.11678637 -0.032075386
0003a0 3a 85 f2 3b a7 9c 30 3e 7f 6b a3 bd 93 b8 08 be
       0.0074011358 0.17247258 -0.07979488 -0.1335166
0003b0 7c 5b 19 3e 31 f7 1a 3b 6b 44 49 3c 34 7c f9 bd
       0.14976305 0.0023645873 0.0122843785 -0.12181893
0003c0 61 5d 0e 3d 6a d2 0f 3e 79 23 93 3c b7 fe d2 bd
       0.03475702 0.1404511 0.01796125 -0.10302489
0003d0 9f b7 00 3e 7b 7c 32 be e7 aa e0 3b 7f 96 c6 bc
       0.12570046 -0.17430298 0.0068563106 -0.024241684
0003e0 d4 fe b5 bd c6 18 53 bd 0f 69 35 3e 79 5f 2f 3e
       -0.08886495 -0.051537298 0.17715858 0.17126264
0003f0 34 e7 fd bd a3 20 3a bb 46 6d 03 3e 49 09 9e bd
       -0.12397614 -0.00284008 0.12834653 -0.07716615

arith.constant2 f4 [32, 1536]
000000 4f 1d a7 3b e3 60 52 3b a8 76 97 3c 20 f6 2e 3c
       0.0050999294 0.0032101206 0.018489197 0.010678798
000010 59 b1 87 bc 8c 98 d8 bc 29 f6 c1 3c ae 6c 03 39
       -0.016564058 -0.026439928 0.023676949 0.0001253362
000020 b5 6d b0 3b de 7c 65 bc 79 0b ed ba 0d 19 da 3c
       0.005384172 -0.014006821 -0.0018085084 0.026623273
000030 92 14 7b 3a 2d fe 6b bb 62 a6 3d 3c e4 bf 16 bc
       0.00095779554 -0.0036009655 0.011575313 -0.009201024
000040 e0 02 bf ba f1 de fe bc 7e c6 d8 3b 51 d1 09 bc
       -0.0014573 -0.031112166 0.006615459 -0.008411721
000050 cd fa 00 bc 14 19 b8 bc 05 13 24 3c f6 36 c5 ba
       -0.007872296 -0.022472896 0.0100143 -0.0015046287
000060 00 52 4f bb cb 6e ed 3b 21 34 11 3c 7b 6b 6b ba
       -0.003163457 0.0072458736 0.008862526 -0.00089805544
000070 86 77 9e bc 59 75 8e bb 82 1d 8c bc a3 7e 17 bb
       -0.019344103 -0.004347485 -0.017103914 -0.0023116253
000080 66 d1 43 3c 8d 45 93 3b 57 a6 0c 3d 42 20 28 bc
       0.01195178 0.004494375 0.03433832 -0.010261597
000090 6e 60 c7 3c ea e5 15 3c 59 29 0f bd 26 f1 36 3c
       0.024337973 0.009149054 -0.03495154 0.011165893
0000a0 af 36 97 bc b4 9d 31 bd 73 9d e9 3b a3 83 87 bc
       -0.018458692 -0.043363288 0.007129365 -0.016542261
0000b0 40 3d 5b bc 54 26 bd bb 45 e9 4f bc a4 42 a0 bc
       -0.013381302 -0.0057723913 -0.012689893 -0.019563027
0000c0 69 a4 dd bb 92 36 83 bb b2 a8 b4 3a b1 de cd ba
       -0.006763984 -0.004004308 0.0013783185 -0.0015706626
0000d0 70 1b a7 bb 68 61 07 bd e9 df 0d bc 15 15 0a bc
       -0.0050997064 -0.03305188 -0.008659341 -0.008427878
0000e0 e4 67 9e 3c 89 22 e5 bb cd 55 75 bc a9 a9 4f bc
       0.019336648 -0.0069926423 -0.01497407 -0.0126747275
0000f0 1d 1b be bb 1c a1 36 bc 88 4a 9d bb 64 37 fe 3c
       -0.005801572 -0.01114681 -0.0048001446 0.031032272
000100 25 f4 58 3c 20 78 4b 3b bf 08 c9 3c 9d e0 85 3c
       0.013241802 0.0031046942 0.024540303 0.016342456
000110 1d e2 9b ba e5 93 9f 3b f0 c7 a8 bb 09 19 61 bb
       -0.0011892949 0.0048699253 -0.0051507875 -0.0034347198
000120 ee ce 7d bc 79 ab bd bc 9d e2 1d 3c 53 16 2e 3c
       -0.01549123 -0.023153054 0.009636548 0.01062544
000130 72 59 93 bb 78 eb 88 bc 4b a8 c8 3b 2d 74 0d 3a
       -0.0044967467 -0.016713843 0.0061235777 0.00053960347
000140 12 fe fa bb 2e 22 4d 3a cc 50 be bb 1e fe 5c bb
       -0.007659682 0.00078252226 -0.0058079716 -0.0033720802
000150 cc e9 7f bb f7 30 b9 3c 13 7e e7 3c 16 8e 84 bc
       -0.0039049266 0.022606356 0.028258359 -0.016181033
000160 0e d6 df 3b 28 95 68 ba 48 54 44 bc 28 2e 5b bc
       0.006830937 -0.00088723237 -0.011982985 -0.013377704
000170 e1 3a a4 bc 2f 1f 36 ba d8 9c f5 3a da 4c e1 ba
       -0.020047607 -0.0006947396 0.001873876 -0.0017189041
000180 d1 ab c4 bc 88 ba b9 bb 8c e0 78 3c 11 a2 56 3c
       -0.02400771 -0.005667988 0.015190255 0.013100163
000190 81 81 32 bb 38 07 81 3c 99 ec a0 bb 40 a9 29 3c
       -0.0027237835 0.015750512 -0.004911017 0.010355294
0001a0 5a c5 25 3c 1c e9 3a 3b ed df 4c 3b 94 85 b9 3c
       0.010117853 0.0028520292 0.00312614 0.022646703
0001b0 42 9f 8f bb b2 3e 7e bb 51 c9 43 bc 71 c3 16 bb
       -0.0043829987 -0.0038794694 -0.011949853 -0.0023004676
0001c0 64 c4 ff 3c d1 c9 df bc 3c 50 7d 3c 62 f2 0e bc
       0.031221576 -0.027317913 0.015461024 -0.008724781
0001d0 4f 6b 9b bc db 2f 37 3c 07 b0 2b 3c 5e 5f ad bc
       -0.018972067 0.011180843 0.01047898 -0.021163639
0001e0 37 8e d7 3b a5 50 ce 3c 63 c2 54 bc 27 7e 48 3c
       0.0065782326 0.025184939 -0.0129857985 0.012237108
0001f0 b9 7f 4a bb 33 6e 66 3c 2b c5 0e bc 6a b5 9c 3c
       -0.0030898883 0.0140643595 -0.008714001 0.019129474
000200 69 9d a6 bb 10 b1 5a 3b f2 48 a2 3b c5 22 63 3b
       -0.0050846827 0.0033369698 0.0049525434 0.0034658175
000210 4d 6e 43 3b 58 c9 8f 3c 02 91 c8 3b 14 10 d7 3b
       0.0029820383 0.017552063 0.006120802 0.006563196
000220 f2 70 24 bc fc 68 01 bc e8 17 dc 3b 32 de 42 bb
       -0.010036694 -0.007898565 0.006716717 -0.002973449
000230 e1 28 3a 3c e9 86 99 3c 40 42 0c bc 0a 08 c9 3a
       0.011362285 0.018741088 -0.008560717 0.0015337479
000240 a9 d1 d4 3b 4f 01 47 bd b9 68 cd bc 5b fe d9 bb
       0.00649472 -0.048585232 -0.02507435 -0.006652636
000250 3d 3f c7 3c ee 2d 36 3b 5a 5d 4b 3b 51 a3 62 bb
       0.024322147 0.0027798372 0.0031030984 -0.0034582207
000260 a7 b9 dd 3c 7c 64 15 3c 70 6d 8d 3c 7b 3a d8 3b
       0.027066065 0.009118196 0.017264098 0.0065987683
000270 b0 4d 09 3c b4 d7 b0 3c 40 44 28 bb 64 c6 0e bc
       0.008380339 0.02158723 -0.0025675446 -0.008714292
000280 33 5a 16 bc bc 16 ee bc 72 cd 79 bc 93 b9 7f bb
       -0.009176779 -0.029063575 -0.015246736 -0.0039020523
000290 2a c0 0c 3c 8a d0 dd 3a 92 11 28 bb 1d b3 15 bc
       0.008590737 0.0016923111 -0.0025645238 -0.009136942
0002a0 86 3c 3b bc 4c 25 e9 bc 4c 02 a9 3c 67 c8 eb bb
       -0.011428004 -0.028460167 0.020630978 -0.0071955207
0002b0 c0 b1 bf 3b dc 4c 26 3c 17 f1 de bc e6 47 70 bc
       0.005850047 0.010150161 -0.02721457 -0.014665579
0002c0 c1 03 8e bc a1 bf e9 bb 28 78 f5 3c df 19 79 3b
       -0.017335774 -0.0071334396 0.029964522 0.0038009805
0002d0 da 36 3d bc 86 f5 b8 3c c9 2a 3b 3b 20 c9 a5 3c
       -0.011548722 0.022578012 0.0028559437 0.020237505
0002e0 54 6c 82 bc d8 a2 24 bc ed d6 19 bc 39 5c 9f 3a
       -0.015920796 -0.010048591 -0.009389621 0.0012158222
0002f0 1d 18 9d 3c c5 ff c5 bc 22 10 83 3c eb c8 a8 3c
       0.019176537 -0.024169812 0.015998904 0.020603618
000300 d1 5e 7c 3c c8 fb d3 3c 0c 60 28 3c 68 33 cd 3c
       0.015403465 0.025876895 0.010276806 0.025048926
000310 ee 7d 03 bc 9a bf 07 bc 53 5a c0 3c 39 db b0 bc
       -0.008025629 -0.0082854275 0.02348057 -0.021588909
000320 fb 3b c4 39 aa e1 68 3c 76 56 82 bc 4b 04 19 3c
       0.00037428722 0.014213959 -0.015910368 0.009339402
000330 09 b0 71 3c 99 b6 90 3c 4e 3b 0c 3b 4b 22 90 bb
       0.014751443 0.017665194 0.0021397653 -0.0043986193
000340 16 b9 90 3c 60 c4 26 3c 12 f7 6b bc 5d 97 9c bc
       0.01766638 0.010178655 -0.014402168 -0.019115144
000350 8a 5d 66 3c 0c 9e d6 bb f6 f0 b4 bc 60 bd d9 bb
       0.014060387 -0.0065496024 -0.022087555 -0.0066448897
000360 3c 2c 3c bc 32 2a be 3b 25 a1 9e 3b 2f a8 99 3c
       -0.011485156 0.00580337 0.0048409873 0.018756954
000370 8f d6 2c bc be 68 1b 3d 96 60 6f bc fd fb b2 bc
       -0.010549202 0.037941687 -0.01461043 -0.021848673
000380 6e 93 95 bc c2 2d 82 3c 04 2b 60 bc dc d0 81 bc
       -0.018258777 0.01589096 -0.013682131 -0.015846662
000390 94 29 72 3c f1 18 cf bc 0c ab 23 bc 1a e1 92 3c
       0.014780421 -0.025280448 -0.009989511 0.017929602
0003a0 97 74 96 bc 59 a7 28 bc f6 43 26 3c c0 9c 8b 3c
       -0.018366141 -0.010293805 0.010148039 0.017042518
0003b0 ad 58 60 bc bd b1 71 bc 1c 65 e0 bb 73 21 1c bc
       -0.013693017 -0.014751849 -0.0068479907 -0.009529459
0003c0 ef 2d 89 bb d3 33 e7 bc 64 a5 ff b9 dc cc 4b 3c
       -0.004186384 -0.028222954 -0.00048760616 0.012438979
0003d0 3b 41 d2 3b e6 62 5e 3c cf 15 e2 bc 1e 38 0c 3c
       0.0064164675 0.013573384 -0.02759829 0.008558301
0003e0 4e c8 5c 3c a9 cf 31 bb 78 fa 95 3a 51 e3 ce 3b
       0.013475491 -0.0027131832 0.0011442443 0.0063137193
0003f0 ad 06 c2 bb f3 be 6b 3c c5 23 29 3a 3e 5d 1d 3b
       -0.005921206 0.014388788 0.00064521685 0.0024011876

model_8/tf.__operators__.add/AddV2/y f4 [32]
000000 3b fe 98 3c 4d 70 ab bc 5f 11 93 bc fe 52 20 3c
       0.018675914 -0.020927573 -0.01795262 0.009785412
000010 41 17 d6 ba 6d 4a 41 3c b4 9f 98 bc b0 49 d1 3c
       -0.0016333835 0.01179753 -0.01863084 0.025547832
000020 7e 77 36 3a ed a8 6d bc 58 8b ba bc ad 4d 81 bc
       0.0006960555 -0.014505607 -0.022771522 -0.015784109
000030 50 8e ae bc b6 5b 68 bc 01 3e a5 bc c3 81 a2 bc
       -0.021308094 -0.014182022 -0.020171167 -0.019837266
000040 c6 15 9f bc 33 10 40 bc 36 a9 d4 bc 8f 79 37 bc
       -0.019419562 -0.011722612 -0.025959592 -0.011198415
000050 38 8b 50 3c 85 68 d1 bc 44 73 c9 bc 46 c7 a2 bb
       0.012728505 -0.025562534 -0.024591096 -0.004967603
000060 25 c5 3c bc af b9 7b 3c 8b 28 c9 bc 1f 17 6a bc
       -0.011521612 0.015364095 -0.024555465 -0.014287739
000070 20 33 99 bc ad eb da 3b e8 52 b1 bc 6e 6a 99 bc
       -0.018701136 0.006680927 -0.021645978 -0.018727507

model_8/tf.__operators__.add_1/AddV2/y f4 [32]
000000 2b c9 c8 bd d3 72 05 3e 2a 41 4f 3d b2 75 09 3e
       -0.09803995 0.13032083 0.050599255 0.13423803
000010 1e b9 11 3d 92 70 82 bb 71 f7 cc bd 54 cb 30 3e
       0.035576932 -0.0039807046 -0.10008133 0.17265064
000020 36 fd c0 3d a1 d4 88 3c c1 5f 7d bd 4d 7d f4 3d
       0.09423296 0.016702952 -0.061858896 0.11937962
000030 5c c4 1d 3d 07 2f 3f 3c 20 1b c8 3b 17 f9 29 bd
       0.03851734 0.011668927 0.006106749 -0.041497316
000040 16 bc 7e 3c cb a8 1b 3d e0 e6 a3 3c 69 22 ab 3c
       0.015547773 0.03800277 0.02000755 0.020890431
000050 9c a9 8f bd c4 c1 66 bb 3f 97 d0 bd 57 21 e2 bc
       -0.07014772 -0.0035210708 -0.10185098 -0.027603788
000060 54 e7 dc bd 5e 5b 0d be 5a d0 a3 bd 9a d6 36 bd
       -0.1078631 -0.13804385 -0.07998724 -0.044638254
000070 53 c9 df bb ca c7 f1 bc ac b7 ff 3d ff de 75 bd
       -0.0068294196 -0.029514212 0.124862045 -0.06002712

model_8/tf.math.add_2/Add/y f4 [1, 32]
000000 e4 98 9e 3c cb ee a5 bc f2 ef 8c bc 47 3d b2 3c
       0.019360013 -0.020255467 -0.017204259 0.021757735
000010 0c 89 b2 3c b4 fa d4 3c 34 5b 47 3c 7c da 14 3d
       0.021793865 0.02599845 0.012167741 0.036341175
000020 0b 77 a5 3c df 71 f5 3c cc 1f c5 3c 1e dd 76 bc
       0.020198366 0.029961525 0.024063013 -0.015067367
000030 30 e0 20 3d f4 57 a8 3b 5a 2c 7f 3c 4a 9e a9 ba
       0.0392763 0.005137438 0.015574539 -0.001294085
000040 01 b8 8e bc ee 32 a8 3c 39 f7 cb 3b 55 01 a2 ba
       -0.017421724 0.020532098 0.0062245396 -0.0012360016
000050 5e 8c cd 3c 38 9c 7d bb 67 a8 5f bc b4 0a 69 bc
       0.025091346 -0.003869785 -0.01365099 -0.014223743
000060 f6 15 90 3a 9c e0 6e 3c c7 ec 98 bc af 54 55 bc
       0.0010992873 0.014579918 -0.018667592 -0.013020678
000070 d3 2c fb bb 5a 83 8b 3b 67 94 73 bc 15 ba 7b bc
       -0.0076652556 0.0042576017 -0.014866925 -0.01536419

model_8/tf.math.add_5/Add/y f4 [1, 32]
000000 a3 98 99 bd 85 46 ef 3c 4a 7e 86 3e 7d b7 0a 3d
       -0.07499816 0.029208431 0.26268226 0.033866394
000010 d3 4a 81 3e 1c d8 68 3d 30 8c 91 3e 94 58 6e 3e
       0.252524 0.056846723 0.28427267 0.23275977
000020 16 ef 77 3c bf e2 c3 bc d6 dc 27 3d 29 58 6c 3e
       0.015132686 -0.023911832 0.04098209 0.23080505
000030 d6 8b cf 3c c0 b0 7f 3e 3a 68 6c 3e 8b fc 88 bd
       0.025335234 0.24969769 0.23086634 -0.06688794
000040 2d 2b 41 bb d2 d2 aa ba 90 63 90 3e 82 0e 93 3d
       -0.0029475198 -0.00130328 0.2820096 0.071805015
000050 4a 94 94 3e 29 d3 fc bc 87 3c cb bb 73 91 83 3e
       0.29019386 -0.030862408 -0.006202284 0.25696906
000060 62 c8 8d 3d 69 46 e4 3b 7f 4d 8a 3a 19 97 58 3d
       0.069229856 0.0069664014 0.001055166 0.052878473
000070 e5 b9 0a 3c e3 96 bd bb 93 2d 44 3c c2 96 10 3d
       0.008467172 -0.0057858094 0.011973756 0.035300024

model_8/tf.math.multiply_10/Mul/y f4 [1, 32]
000000 9d 16 7c 3f aa f2 7d 3f 15 71 78 3f 25 70 82 3f
       0.98472005 0.991984 0.9704755 1.0190474
000010 f1 62 79 3f 9b 7a 81 3f 1f 58 7f 3f 38 58 85 3f
       0.974166 1.0115541 0.9974384 1.0417547
000020 67 e1 7b 3f 4f 04 80 3f dc 00 81 3f cb 6d 7f 3f
       0.9839081 1.0001315 1.0078387 0.99776906
000030 92 f3 7b 3f bb 97 81 3f 0a ce 81 3f 3e 11 81 3f
       0.98418534 1.012443 1.0141003 1.0083387
000040 bb a4 7b 3f c6 fc 7e 3f 2e 00 7c 3f bd 46 80 3f
       0.98298234 0.9960445 0.98437774 1.0021588
000050 c7 18 7c 3f 16 11 7a 3f f8 37 79 3f e6 32 7f 3f
       0.9847531 0.9768232 0.97351027 0.9968704
000060 1d d0 7f 3f e6 a1 80 3f f2 5e 7e 3f df 63 7e 3f
       0.9992693 1.0049407 0.99363625 0.9937114
000070 ad 25 7d 3f 87 7f 73 3f 93 49 7f 3f 02 3c 7f 3f
       0.98885614 0.95116466 0.9972164 0.9970094

model_8/tf.math.multiply_22/Mul/y f4 [1, 32]
000000 bf c6 71 3f ee 64 85 3f 11 ba a3 3f 65 ac 86 3f
       0.9444389 1.0421426 1.2791158 1.0521361
000010 fb 48 a1 3f c3 a3 8b 3f 1f 6a ab 3f ec 97 9b 3f
       1.2600397 1.0909351 1.339176 1.2155738
000020 f5 ed 82 3f 25 cc 7d 3f e0 73 8b 3f 09 b1 9a 3f
       1.0228869 0.99139625 1.0894737 1.2085277
000030 5f 93 83 3f 9f 48 a0 3f 14 0f 9b 3f 68 73 70 3f
       1.0279349 1.2522162 1.2113976 0.93926096
000040 04 f0 7f 3f 2b 3c 80 3f cc 86 aa 3f 8f 87 8b 3f
       0.9997561 1.0018362 1.3322387 1.0900744
000050 9c 82 ad 3f 1f a2 7d 3f 9e 7a 7f 3f 50 7b a2 3f
       1.3555484 0.990755 0.99796474 1.2693882
000060 e8 39 8e 3f 7a 87 82 3f 34 3f 80 3f 6f 60 8a 3f
       1.1111422 1.0197594 1.0019288 1.0810679
000070 80 56 80 3f 56 70 7e 3f 62 87 80 3f b7 d9 86 3f
       1.0026398 0.9939016 1.0041316 1.0535191
