tests/suh_man_tuh.onnx (onnx, 206966 bytes, 9 tensors)

const_fold_opt__23 f4 [32, 32]
0	0x3cdeef29	0.02721365
1	0x3e148fff	0.14508055
2	0xbcf73db2	-0.030180786
3	0x3cbbcafa	0.022923935
4	0x3de2bc11	0.11071027
5	0x3de4980b	0.111618124
6	0x3d9be440	0.076118946
7	0xbe091934	-0.1338852
8	0xbd283f83	-0.041076194
9	0xbdea6434	-0.114448935
10	0x3e1d094b	0.15335576
11	0xbdff455b	-0.124644004
12	0x3d173c6d	0.03692286
13	0x3e0c055c	0.1367392
14	0x3e005c7c	0.1253528
15	0x3dc1c2bb	0.0946097
16	0x3d97df95	0.07415692
17	0xbd4d2a9a	-0.050089456
18	0xbd92b6b0	-0.07163751
19	0x3c1bc468	0.009507276
20	0xbc374ee5	-0.0111882435
21	0x3d3c3948	0.045953065
22	0xbd26a30b	-0.040682834
23	0xbd218bc1	-0.03943992
24	0x3e5b4f5e	0.21416995
25	0x3e1832f1	0.14863183
26	0x3d42b902	0.04753972
27	0x3ddc08b1	0.10743845
28	0xbdaa7f42	-0.08325054
29	0x3dc5ea77	0.09663861
30	0x3e19220d	0.14954396
31	0xbd0b1de3	-0.03396405
32	0x3d35e94e	0.04441195
33	0x3e2baa89	0.16764273
34	0xbda73f17	-0.0816633
35	0x3e00e932	0.12588957
36	0xbc626226	-0.013817346
37	0x3e2d07c7	0.16897498
38	0x3de45686	0.111493155
39	0xbb96e623	-0.004605071
40	0x3dbbcacc	0.0916954
41	0x3d83a7a8	0.06428462
42	0xbd2eec0a	-0.042705573
43	0x3de62fc7	0.112395816
44	0xbd841513	-0.06449332
45	0xbd9e730e	-0.07736789
46	0xbdfaab2c	-0.1223968
47	0xbd993faf	-0.0748285
48	0x3cd56be1	0.026052417
49	0x3dbb3fa5	0.091429986
50	0xbd93726d	-0.07199559
51	0xbe2ac1a5	-0.16675432
52	0x3de9bd8c	0.11413106
53	0xbdb10368	-0.08643228
54	0x3dd06e7d	0.10177324
55	0x3d190e6e	0.037367277
56	0x3dea780b	0.11448678
57	0xbdf179f1	-0.117908366
58	0x3e0250c2	0.12726119
59	0x3dab3269	0.08359224
60	0xbdc9526e	-0.09830175
61	0xbe099779	-0.13436688
62	0x3d4b5095	0.049637396
63	0xbdcba652	-0.099438325
64	0xbdffdc6c	-0.12493214
65	0x3ca6fc54	0.020383991
66	0xbc3bbcd1	-0.011458592
67	0x3dcbc5f4	0.09949866
68	0xbe50f003	-0.20404057
69	0x3e0ccdac	0.13750333
70	0xbdb1e8c3	-0.08686974
71	0xbdf17ec0	-0.11791754
72	0xbdb9e2d6	-0.09076469
73	0x3a3013b8	0.00067168055
74	0x3e4ff7db	0.20309393
75	0xbd2f4aa3	-0.04279579
76	0x3de2f806	0.11082463
77	0x3e094bd5	0.13407834
78	0xbd817eb9	-0.063229986
79	0xbd875b68	-0.06609231
80	0xbdee76f1	-0.1164378
81	0x3d54e198	0.051972955
82	0x3de79495	0.11307637
83	0xbd8b0c0e	-0.067894086
84	0xbdb3fd72	-0.08788575
85	0xbda2cbfb	-0.079490624
86	0x3daffccb	0.08593138
87	0xbd90ab60	-0.07063937
88	0x3c0c8083	0.008575561
89	0xbca7e1ef	-0.020493476
90	0x3d3295a3	0.043599736
91	0xbd8a1a0a	-0.06743248
92	0x3d957730	0.07298124
93	0xbd2a4f12	-0.041579314
94	0xbd5fe826	-0.054664753
95	0x3d8c8594	0.068614155
96	0xbe11b058	-0.14227426
97	0xbdbd0514	-0.09229484
98	0xbdbae8e6	-0.09126453
99	0x3e149338	0.14509284
100	0x3b2a0589	0.002594324
101	0xbdaf5018	-0.085601985
102	0x3d8a8adb	0.06764766
103	0xbdd47595	-0.103739895
104	0xbd6ca2ab	-0.05777232
105	0x3d83fa7d	0.06444261
106	0x3e40338c	0.18769664
107	0xbd1e5a09	-0.038660083
108	0x3de46be9	0.11153395
109	0xbdb06027	-0.086120896
110	0xbced8f62	-0.028999034
111	0x3e490bc8	0.196334
112	0x3dd4fcbf	0.1039977
113	0x3d3ade1e	0.045621984
114	0xbd339794	-0.043845728
115	0xbde3e806	-0.11128239
116	0xbdf06f11	-0.11739934
117	0x3e1f2249	0.15540422
118	0xbe392610	-0.18080926
119	0x3b1c4a5b	0.002384803
120	0xbdc0d8af	-0.09416329
121	0x3e1c84c3	0.1528502
122	0xbd550d96	-0.05201491
123	0x3d87db85	0.06633667
124	0x3c161dd8	0.009162389
125	0xbe15842f	-0.14601205
126	0x3df6ee99	0.12057228
127	0x3d94a965	0.07258872
128	0xbe2fd8b2	-0.17172506
129	0xbdb9a220	-0.09064126
130	0xbd26d570	-0.040730894
131	0xbe06c4e6	-0.13161048
132	0xbe1677ba	-0.1469411
133	0xbe217cd4	-0.15770274
134	0xbdaa0d12	-0.08303274
135	0x3da132e6	0.07871036
136	0xbdcf670c	-0.101270765
137	0x3d2b612a	0.04184071
138	0xbdafabef	-0.085777156
139	0xbdad6047	-0.08465629
140	0xbdb54389	-0.08850772
141	0x3dd2c570	0.102915645
142	0x3d3218a1	0.04348052
143	0x3dd2e0fa	0.10296817
144	0xbddf17f3	-0.1089324
145	0x3e017b19	0.12644614
146	0xbd10d135	-0.035355765
147	0x3d6dbdc4	0.058042303
148	0xbd674be5	-0.056468863
149	0x3c0cc6cf	0.008592322
150	0xbba0406b	-0.0048904917
151	0x3e404e55	0.18779881
152	0x3d875e26	0.06609754
153	0x3db757fd	0.08952329
154	0x3e203016	0.15643343
155	0x3e40a746	0.1881381
156	0xbdf2ef5a	-0.11862059
157	0x3c34a761	0.011026234
158	0xbc29d047	-0.010364599
159	0x3e1ebdfe	0.15502164
160	0x3dadbbeb	0.08483108
161	0x3e1d0ca8	0.15336859
162	0x3e11be47	0.14232741
163	0xbcc97938	-0.024593934
164	0xbe24a679	-0.1607913
165	0x3c15eeda	0.009151185
166	0x3e17e0b2	0.14831808
167	0xbdc73e44	-0.09728673
168	0xbdc254f2	-0.09488858
169	0xbdc0e536	-0.094187185
170	0x3e4355e2	0.1907573
171	0x3d960ac6	0.073262736
172	0xbd91a282	-0.07111074
173	0x3d4e8a19	0.05042467
174	0xbdefc40e	-0.11707316
175	0xbd518d2e	-0.05116003
176	0xbd4731cd	-0.048631478
177	0x3dc8b910	0.09800923
178	0xbda165df	-0.078807585
179	0x3d21a4aa	0.039463677
180	0xbcca6dfd	-0.02471065
181	0x3c9d42b0	0.019196838
182	0x3d52c4a6	0.05145707
183	0x3d30cb13	0.043162417
184	0xbb9bfe3a	-0.004760531
185	0xbddc3758	-0.107527435
186	0x3d61dbe0	0.05514133
187	0x3d8fd021	0.07022119
188	0x3c131ef7	0.008979551
189	0xbd531997	-0.051538076
190	0x3dbad80b	0.09123238
191	0x3def21ea	0.116763905
192	0x3d65c807	0.056098964
193	0xbd6c30d9	-0.057663772
194	0xbd90add2	-0.070644036
195	0x3e147cb0	0.1450069
196	0xbe36362e	-0.17794105
197	0xbdba6942	-0.091021076
198	0xbd14140c	-0.03615193
199	0xbd3b46f9	-0.04572198
200	0x3d0dfd41	0.03466535
201	0xbe376365	-0.1790901
202	0xbd0592fe	-0.032610886
203	0xbd9827f3	-0.07429495
204	0xbe216ede	-0.15764949
205	0x3d70cabc	0.058787093
206	0xbd33f1e8	-0.04393187
207	0x3e3f2a3a	0.18668452
208	0x3e08b648	0.13350785
209	0xbd25e073	-0.040497255
210	0xbd55c463	-0.052189242
211	0x3e315e16	0.17321047
212	0x3ccc5fe0	0.02494806
213	0xbda12b82	-0.078696266
214	0xbba3a433	-0.0049939393
215	0xbdb47e84	-0.088131934
216	0xbdc4e08f	-0.09613144
217	0xbbd4cf95	-0.0064944723
218	0xbe1fd458	-0.15608346
219	0xbddd2bfb	-0.10799404
220	0x3e0b8041	0.13623144
221	0xbe147c88	-0.1450063
222	0x3e118ffd	0.14215083
223	0xbe005a0c	-0.1253435
224	0xbb11dd9d	-0.0022257336
225	0x3e0f4867	0.13992463
226	0x3d81e59a	0.06342621
227	0xbdb4f453	-0.08835664
228	0x3d8b353d	0.06797264
229	0xbb9a6b4c	-0.004712498
230	0xbcebfbc6	-0.028806578
231	0x3dda33dd	0.106544234
232	0xbd12a66a	-0.035803236
233	0xbd434371	-0.04767174
234	0x3dea583a	0.11442609
235	0x3d2184d9	0.039433334
236	0x3e09d037	0.13458334
237	0xbe10a014	-0.14123565
238	0x3c796eb9	0.015224152
239	0xbdde643f	-0.10858964
240	0xbe11690d	-0.1420023
241	0x3dcd8cc2	0.10036613
242	0x3e31d7c3	0.17367463
243	0x3d975ca2	0.07390715
244	0x3d037138	0.032090396
245	0xbe16deb7	-0.14733396
246	0x3db5d70f	0.0887891
247	0xbda842b8	-0.082158506
248	0xbe1e1cfd	-0.15440746
249	0x3c31ae70	0.010844812
250	0x3c54bf5f	0.01298508
251	0xbdd632c4	-0.104589015
252	0x3ded9f13	0.116026066
253	0xbdf7c1a8	-0.12097484
254	0xbb4ab65e	-0.0030931453
255	0x3d37e29e	0.044893853

const_fold_opt__22 f4 [1536, 32]
0	0xbb854284	-0.004066767
1	0xbaabd0f3	-0.0013108536
2	0xbbd0c7e3	-0.0063714846
3	0x3c1459ec	0.009054642
4	0x3d0038f2	0.031304307
5	0x3b334788	0.0027355868
6	0x3cbfabf6	0.023397427
7	0xba145dea	-0.0005659746
8	0x3c1c910b	0.009556065
9	0xbb4359c7	-0.002980815
10	0xbc84aac1	-0.016194703
11	0x3c4fa33f	0.012673198
12	0xbbf4caf9	-0.0074704853
13	0x3c044777	0.008073679
14	0xbcbb6c15	-0.022878686
15	0xbb8a17b0	-0.0042142496
16	0xbc97e90e	-0.018543746
17	0xbc2cb232	-0.010540532
18	0x3d094db4	0.03352137
19	0xbb22ba97	-0.0024830454
20	0x3bffb9f4	0.0078041498
21	0x3c85c3d4	0.01632873
22	0x3cff0674	0.031131007
23	0xbc84f501	-0.016230108
24	0xbcb215c2	-0.02173889
25	0x3ccb7971	0.024838181
26	0xbada88cb	-0.0016672848
27	0xbbcf91e3	-0.0063345297
28	0xbbbfe064	-0.005855607
29	0xbc3d5c0e	-0.011557592
30	0x3c6b0eb4	0.014346767
31	0x3d151e19	0.036405656
32	0x3cc7df5c	0.024398498
33	0x3c56e214	0.013115425
34	0xb919b50c	-0.00014658662
35	0x3bc9fc53	0.0061641126
36	0xba87acf0	-0.0010351222
37	0xbc8119fa	-0.015759457
38	0xbc307f48	-0.010772534
39	0x3c295005	0.01033402
40	0xbc68b1a5	-0.01420251
41	0xbbbd73a3	-0.0057816072
42	0xbccea234	-0.025223829
43	0x3cace554	0.021105446
44	0xbbc2c85b	-0.0059442944
45	0xbc9f3b4c	-0.019437455
46	0xbc83a59a	-0.016070176
47	0x3b02eab5	0.0019976322
48	0x3c77da18	0.015127681
49	0x3ac0bf49	0.0014705445
50	0x3ce6ab5d	0.028157884
51	0xbca4b0d7	-0.020103855
52	0xbb9cfc58	-0.004790824
53	0xbc4f9eac	-0.012672108
54	0x3c6504cf	0.013978197
55	0xbb071018	-0.0020608958
56	0x3b8e2b75	0.0043386766
57	0xbbc94340	-0.00614205
58	0x3c46d360	0.012135357
59	0x3b71d74a	0.0036902004
60	0x3c47d237	0.012196115
61	0xbc726293	-0.01479401
62	0xbcaa2c6d	-0.020773137
63	0x3b73433f	0.003711894
64	0x3cf2184d	0.029552603
65	0x3c39b4c3	0.011334601
66	0x3c51b018	0.012798332
67	0x3cb47d45	0.02203239
68	0x3d080bf3	0.03321452
69	0xbc3173ef	-0.010830863
70	0x3d012129	0.031525765
71	0xbc2edea0	-0.010673195
72	0x3c3d1b2e	0.011542125
73	0xbd1522ac	-0.03641002
74	0xbd41a593	-0.047277045
75	0x3c786f50	0.015163258
76	0xbb16cdb5	-0.0023010795
77	0xbd09358c	-0.033498332
78	0xbc8b025f	-0.016968904
79	0x3d0fba18	0.035089582
80	0xbbff1de1	-0.0077855443
81	0x3c7c1a6a	0.015387157
82	0x3c301596	0.010747334
83	0xbc81d893	-0.015850341
84	0x3cabcb9d	0.020971114
85	0x3ccfe66c	0.025378428
86	0x3d3021af	0.043000873
87	0xbd12155e	-0.03566491
88	0xbd3cec22	-0.04612363
89	0x3d00aa04	0.03141214
90	0xbced4850	-0.028965145
91	0xbba52a99	-0.0050404784
92	0x3bb3899a	0.00547905
93	0xbcb555fb	-0.022135725
94	0x3c09e978	0.00841748
95	0xbbaec4e3	-0.0053335293
96	0x3c020066	0.007934665
97	0x3d4318a0	0.047630906
98	0xbd26721a	-0.04063616
99	0x3c881008	0.016609207
100	0xb9d84e45	-0.00041257046
101	0xbd2cf3e6	-0.042224787
102	0xbbeb485a	-0.007180256
103	0x3af96910	0.0019028503
104	0x3ca3a378	0.019975409
105	0xbb7b82b7	-0.0038377473
106	0xbc919f73	-0.017776227
107	0xbcf8c216	-0.030365985
108	0x3c165355	0.009175141
109	0xb9696fe3	-0.00022262293
110	0xbd15f404	-0.036609665
111	0xbcc0d0ff	-0.023537157
112	0x3c4987a4	0.012300406
113	0xbb910ea4	-0.004426794
114	0xbc0559ca	-0.008139083
115	0xbc361fd1	-0.011115984
116	0x3ce78140	0.028259873
117	0x3c8d9189	0.01728131
118	0xbce00f96	-0.027351182
119	0x3c03fffa	0.008056635
120	0xbb711fbb	-0.0036792594
121	0x3af6dcd8	0.0018834127
122	0xbb0df221	-0.0021659213
123	0xbd61d4a4	-0.05513443
124	0x3c0fb6d5	0.008771618
125	0x3c45afcd	0.01206584
126	0xbc930878	-0.017948374
127	0xbcc13bcb	-0.023588082
128	0x3cea3912	0.028591666
129	0x3c45bdd8	0.012069188
130	0xbafa984d	-0.0019118875
131	0x3b6a0a63	0.0035711757
132	0x3cc1ff3f	0.023681281
133	0xbbf20a4b	-0.007386481
134	0xb951a34f	-0.0001999263
135	0xbc73fae7	-0.014891363
136	0xbbee0b78	-0.007264551
137	0x3c27e688	0.010247834
138	0xbca677d3	-0.020320809
139	0x3c165c2d	0.00917725
140	0x3d0ec5e7	0.034856703
141	0xbbb52ceb	-0.0055290363
142	0xbc92d331	-0.01792297
143	0x3c774658	0.015092455
144	0x3cc8b0de	0.0244984
145	0x3c98189b	0.01856642
146	0x3cdedb4f	0.027204184
147	0x3bf73819	0.007544529
148	0xbc90404b	-0.017608782
149	0xbb3891cd	-0.0028163076
150	0x3b21ed82	0.0024708216
151	0xbc7d8cc4	-0.015475456
152	0x3bc0ed25	0.005887645
153	0x3cb24cc1	0.021765115
154	0x3a8f700c	0.0010943427
155	0x3b2e0427	0.0026552768
156	0x3cdebecd	0.02719059
157	0x3bbfbf7e	0.005851685
158	0x3c9ca199	0.019120025
159	0xbc3a76fa	-0.011380905
160	0xbca87937	-0.020565612
161	0x3c88f8d3	0.016720211
162	0xbcba1d5e	-0.022719081
163	0x3bd7c0db	0.0065842695
164	0x3a45b591	0.0007542009
165	0x3c1084a7	0.008820689
166	0x3cb401fc	0.021973602
167	0x3cc1fc96	0.023680013
168	0xbca3e8e8	-0.02000852
169	0x3c82dde1	0.01597494
170	0x3c92150a	0.017832298
171	0x3c54687f	0.012964367
172	0xbc1b1510	-0.009465471
173	0xbc14753e	-0.009061156
174	0x3b7759a9	0.003774265
175	0x3c91ac4b	0.017782351
176	0xbcd54e8b	-0.026038429
177	0xbc6d3cd6	-0.014479836
178	0xbbad5844	-0.005290063
179	0x3c6e17ed	0.014532072
180	0x3c104596	0.008805653
181	0xbbbfa65f	-0.0058486904
182	0xbc906e0f	-0.017630605
183	0xbb8cf896	-0.0043020947
184	0xbc2c5c90	-0.0105201155
185	0xbcbe173b	-0.023204437
186	0x3cc29359	0.023751901
187	0xbc07e64c	-0.008294653
188	0x3c4d6b2b	0.012537758
189	0x3b61217e	0.0034352238
190	0xbc087d81	-0.008330704
191	0xbb462d99	-0.003023958
192	0x3c1fc824	0.009752307
193	0x3a7206a8	0.0009232559
194	0x3c49d2cc	0.012318324
195	0x3cdbefc2	0.026847724
196	0x3c52e20f	0.012871279
197	0xbb0d8421	-0.0021593648
198	0x3ceab15d	0.028649027
199	0xba76c2ae	-0.0009413165
200	0x3c221abc	0.009894069
201	0xb8be65a2	-9.0788366e-05
202	0x3b601240	0.0034190565
203	0x3a51ff29	0.0008010739
204	0x3cdf6cb7	0.027273519
205	0xbc4a7d3f	-0.012358963
206	0xbc3c2815	-0.011484166
207	0xbc9809fd	-0.01855945
208	0x3abd280b	0.0014431489
209	0x3cb376f5	0.02190731
210	0xbc6c5dc2	-0.0144266505
211	0x3c0e7067	0.008693791
212	0xbb56a441	-0.0032751712
213	0x3bb526b2	0.0055282945
214	0x3a823add	0.0009935756
215	0x3c520c44	0.012820307
216	0x3c423774	0.011854041
217	0xbc53ce4d	-0.012927604
218	0x3bb73d35	0.0055920132
219	0xbbb0e333	-0.005398178
220	0xbc2c9b34	-0.01053505
221	0xbc957397	-0.018243594
222	0x3cc26188	0.023728147
223	0x3d06851d	0.03284179
224	0xbb1d806a	-0.002403284
225	0xba14b77f	-0.0005673095
226	0x3c7192aa	0.01474444
227	0x3bc885b6	0.006119455
228	0x3b83f7c0	0.004027337
229	0xbc190485	-0.009339456
230	0x3cd8fe15	0.026488343
231	0xbbfce7b6	-0.007718052
232	0xbc271cb1	-0.010199712
233	0xbca1dd23	-0.019758767
234	0x3b763a5a	0.0037571401
235	0x3bfdea1a	0.0077488543
236	0x3c91040d	0.017702127
237	0x3c1fd3f2	0.009755122
238	0x3ca4b992	0.020108018
239	0xbb86b278	-0.0041106306
240	0xb9a765f4	-0.00031928683
241	0x3c8d76eb	0.017268619
242	0xbc995de3	-0.018721526
243	0x3caf2446	0.021379601
244	0x3c26037f	0.0101326695
245	0x3c1df677	0.009641281
246	0x3ce9ff58	0.02856414
247	0x39d2b469	0.00040188737
248	0x3c870aff	0.016484736
249	0x3afba69f	0.0019199437
250	0xbcb54a98	-0.022130296
251	0x3b2a49b3	0.002598387
252	0x3b4ef72a	0.0031580427
253	0xbbe058cb	-0.0068465224
254	0xbc01d1f4	-0.007923592
255	0xbae3ae0f	-0.0017370599

const_fold_opt__20 f4 [32, 1]
0	0xbd711c15	-0.05886467
1	0x3c00036b	0.007813315
2	0x3c24f647	0.010068483
3	0x3dc9b068	0.098481
4	0xbeab13fe	-0.3341369
5	0x3d16eba3	0.036845814
6	0xbeaf919e	-0.34290785
7	0xbeacbb75	-0.33736768
8	0x3ddeac48	0.10872704
9	0xbeb3a505	-0.35086837
10	0x3e605f92	0.21911457
11	0xbeabd83b	-0.33563408
12	0xbeb0786d	-0.34466878
13	0x3dd2d4e7	0.10294514
14	0x3daf4a43	0.08559086
15	0x3e560f70	0.20904326
16	0x3dbcdf68	0.09222299
17	0x3e05c58f	0.13063644
18	0xbec1c96f	-0.37848994
19	0xbdf46017	-0.1193239
20	0x3ddbf454	0.10739961
21	0xbd264061	-0.04058874
22	0xbeae35d2	-0.34025437
23	0x3e1b6ebe	0.15178964
24	0x3e8f7e2b	0.28025946
25	0x3cbe63a3	0.02324087
26	0x3e10c570	0.14137816
27	0x3e2b9720	0.16756868
28	0xbea3562f	-0.3190169
29	0xbdd01348	-0.101599276
30	0xbeb86a2a	-0.36018497
31	0xbe92e1f9	-0.28688028

Const_7 f4 [32]
0	0xbb9ba9b0	-0.004750453
1	0xbd2509e2	-0.040292628
2	0xbcb5e4a3	-0.022203749
3	0x3d4803e6	0.048831843
4	0x3e65120a	0.22370163
5	0x3c5444bf	0.0129558435
6	0x3e4df6c2	0.20113662
7	0x3e53a0a2	0.20666745
8	0x3c9ef755	0.019405046
9	0x3e51ce36	0.2048882
10	0x3d56ea25	0.05246939
11	0x3e57d2d2	0.21076515
12	0x3e526744	0.20547205
13	0x3ba71f51	0.0051001688
14	0x3d14a1eb	0.03628723
15	0x3da7aba9	0.081870385
16	0x3d2bb212	0.041917868
17	0xbc10c88a	-0.008836875
18	0x3e55cef1	0.20879723
19	0xbc1177e1	-0.008878679
20	0x3d11b85d	0.035576213
21	0xbbed06aa	-0.0072334604
22	0x3e58304f	0.21112178
23	0x3d298282	0.041384228
24	0x3dc20554	0.094736725
25	0x3ca5b1a7	0.020226313
26	0x3da81bbd	0.08208416
27	0x3dec7bc7	0.11547046
28	0x3e62000e	0.22070333
29	0x3dad42c7	0.084600024
30	0x3e5321d4	0.20618373
31	0x3e7f63d0	0.24940419

Const_6 f4 [32]
0	0x3f7f47a7	0.9971871
1	0x3f73ab7c	0.9518354
2	0x3f7d1f2c	0.9887569
3	0x3f891801	1.071045
4	0x3fa07ee7	1.2538728
5	0x3f864ee9	1.0492831
6	0x3f97e5d4	1.1867013
7	0x3f9972f2	1.1988204
8	0x3f827b85	1.0193945
9	0x3f99d0ec	1.2016883
10	0x3f8a00f5	1.0781542
11	0x3f9b0b95	1.211291
12	0x3f99695a	1.1985276
13	0x3f8207dd	1.015865
14	0x3f8573a3	1.0425915
15	0x3f904289	1.1270305
16	0x3f873115	1.0561854
17	0x3f7fa322	0.99858296
18	0x3f9d1dbd	1.22747
19	0x3f7f9e73	0.9985115
20	0x3f86b0ae	1.0522668
21	0x3f7de1e7	0.99172825
22	0x3f9b72fe	1.2144468
23	0x3f86a888	1.0520182
24	0x3f8ea5a6	1.1144302
25	0x3f81b60e	1.0133684
26	0x3f8d4106	1.1035469
27	0x3f93477c	1.150619
28	0x3f9e6596	1.2374752
29	0x3f886216	1.0654933
30	0x3f9b3207	1.2124642
31	0x3fa72e0e	1.306093

Const_5 f4 [32]
0	0x3d90ccfb	0.07070347
1	0xbe234657	-0.15944801
2	0x3d3b354c	0.045705125
3	0xbe193da7	-0.14964925
4	0x3decf097	0.11569326
5	0x3d264169	0.040589724
6	0x3e03d193	0.12872915
7	0xbd39d2e8	-0.04536715
8	0x3e025fa4	0.12731797
9	0x3dcadd9d	0.09905551
10	0xbc62024c	-0.013794493
11	0x3cfc9476	0.03083251
12	0xbe2b870b	-0.16750734
13	0x3e06f00f	0.13177513
14	0x3d1ae52f	0.037816223
15	0x3d82de71	0.063900836
16	0x3d70b99e	0.05877077
17	0x3d40dd68	0.04708615
18	0x3e25c699	0.1618904
19	0xbe001872	-0.12509325
20	0x3d5abae4	0.05340089
21	0x3ddc3da9	0.10753948
22	0xbdadfeb4	-0.084958464
23	0x3dd2647f	0.10273074
24	0x3d0f3e94	0.03497179
25	0xbe24b94e	-0.16086313
26	0xbda7429b	-0.08167001
27	0x3db2cecc	0.087308496
28	0x3d739e69	0.059477244
29	0xbbad4830	-0.0052881464
30	0xbcd61e9d	-0.026137644
31	0x3e120809	0.14260878

Const_3 f4 [32]
0	0x3c249b98	0.010046862
1	0x3c9b50ef	0.01895949
2	0xbaeb3679	-0.0017945311
3	0x3cd6ed03	0.026236063
4	0x3c6ff06b	0.014644722
5	0x3aee1658	0.0018164618
6	0x3a6aed4c	0.00089617516
7	0x3c8f6834	0.017505743
8	0x3b345ab0	0.0027519874
9	0x3c332a2d	0.010935348
10	0x3c09a4d5	0.008401115
11	0xbb8c23d6	-0.004276733
12	0x3b055293	0.0020343408
13	0x3c450a7b	0.0120264245
14	0xbc34fe61	-0.011046977
15	0x3d0e9f04	0.034819618
16	0xbbb37898	-0.0054770224
17	0xbb575502	-0.0032857065
18	0x3c968b27	0.0183769
19	0x3b98f131	0.004667424
20	0x3cd6b4e3	0.0262093
21	0xbaab872d	-0.001308655
22	0xba320feb	-0.0006792533
23	0x3cedcbdc	0.029027872
24	0x3c92eeaa	0.01793607
25	0x3ac444c3	0.0014974106
26	0x3c580373	0.013184416
27	0x3c887bd5	0.01666061
28	0x3c65ad3f	0.014018356
29	0x3c50115e	0.012699453
30	0xbc1ef113	-0.009701031
31	0x3c4c364a	0.012464115

Const_2 f4 [32]
0	0x3f7d6a03	0.98989886
1	0x3f751750	0.957387
2	0x3f78827e	0.97074115
3	0x3f7eade0	0.9948406
4	0x3f82ceae	1.0219324
5	0x3f7c8e69	0.986548
6	0x3f7dfde3	0.99215525
7	0x3f84253e	1.0323865
8	0x3f7d7afd	0.9901579
9	0x3f812c57	1.0091656
10	0x3f811adc	1.0086322
11	0x3f7af071	0.98023134
12	0x3f7cc67b	0.9874036
13	0x3f867ef5	1.0507494
14	0x3f7f530a	0.9973608
15	0x3f822c3f	1.0169753
16	0x3f7ec6ab	0.99521893
17	0x3f7faff7	0.99877876
18	0x3f81fb8d	1.0154892
19	0x3f8007ae	1.0002344
20	0x3f807c13	1.0037864
21	0x3f732349	0.94975716
22	0x3f839965	1.0281187
23	0x3f8264c4	1.0187001
24	0x3f7d52de	0.9895457
25	0x3f7ff280	0.999794
26	0x3f818030	1.0117245
27	0x3f81ad81	1.0131074
28	0x3f7f47ec	0.9971912
29	0x3f8290df	1.0200461
30	0x3f7f1160	0.9963589
31	0x3f80900a	1.0043957

Const_1 f4 [32]
0	0x3bb3a785	0.0054826164
1	0x3c967a1a	0.01836877
2	0xbbdbb3b9	-0.006704774
3	0xbc092bec	-0.008372288
4	0xbc0eb38e	-0.008709801
5	0x3a9779dd	0.0011556704
6	0xbce5defc	-0.028060429
7	0x3cbd5205	0.023110399
8	0x3c2ee7b7	0.010675362
9	0x3ca55736	0.020183187
10	0xbc9a92b9	-0.018868791
11	0x3b899b8c	0.004199451
12	0xbc7a2d27	-0.015269554
13	0x3cf717af	0.03016266
14	0x3c8c09ea	0.017094571
15	0xbc053add	-0.00813171
16	0xbc1bfcfd	-0.009520766
17	0xbb5fe576	-0.003416387
18	0xbb9e9407	-0.0048394236
19	0x3c98b36e	0.018640246
20	0xbc35e540	-0.011102021
21	0x3ccf1ed9	0.025283264
22	0xbc5f6372	-0.013634549
23	0x39cb53c0	0.00038781576
24	0xbc818dcf	-0.01581469
25	0xbca70cf9	-0.020391928
26	0xbbe6684b	-0.0070314757
27	0xbafbe66e	-0.0019218454
28	0xbcb229d8	-0.021748468
29	0x3c8f855b	0.017519644
30	0x3cb99473	0.022653794
31	0xbce67289	-0.028130786
