tests/suh_mahn_thuh.onnx (onnx, 206968 bytes, 9 tensors)

const_fold_opt__23 f4 [32, 32]
00000000: c5aa 29be 9b1c 36bd 43a4 37bd 4d06 213e
00000010: c999 b33c 2817 2abe 2e47 043e bc9d 2bbd
00000020: 18b0 713d b9f2 2abe 5dfd 0d3e eaef 67bd
00000030: d9e6 1d3c 9440 cc3b 3053 10bd d6ae f23d
00000040: ad84 99bd 7b05 28be 9927 293e 2a6f b23d
00000050: f43f 72bd bfad a83d 31f7 00be 6e18 2fbc
00000060: d3aa e7bd 0e06 e7bd 7526 5abd 68c5 0e3c
00000070: b5e5 543d 999b cc3d 1f86 353e f8b5 00be
00000080: 1684 0b3e 40f0 16be 6d24 153e e417 7c3d
00000090: 2c08 bc3b 17a3 54bd 168f c33d d4b1 4b3d
000000a0: 04f0 fdbd 95af 04be 2d54 fbbd cd42 203e
000000b0: e856 083e 8e79 48bd 8219 00be 98e2 4fbc
000000c0: 9377 ce3d cce1 61bd b307 9a3d 61f5 bfbd
000000d0: e44c 03be 1ff3 ba3c bd5a da3d e0b1 ccbd
000000e0: e8d5 803d 0cd4 03be 3b6c 383e d132 d9bd
000000f0: 8a5e 7dbd ef9d a2bd 1da2 90bd dbac f73d
00000100: 9556 0bbe 5d7f 163d 8299 d7bc d6e6 84bd
00000110: f7a8 2dbe ab53 24be 8922 053e b63d 033c
00000120: 8f9b a2bd 62d8 e8bd 7bfe 433d 0162 ccbd
00000130: b0bb 6cbc 00e8 2e3e f5f5 cd3d 6ada ae3d
00000140: 711c dcbd d754 a53d ff18 c03d ab57 fe3d
00000150: 5b06 243e 9384 c7bd 1e37 89bd e5bb 1bbd
00000160: 9ef3 31be 6a3f c8bd 0ef8 fe3d 717e 9d3d
00000170: 6779 bd3d 1b37 10be 36c0 6ebd fa54 093e
00000180: c38d a9bb 4dfc c2bd 7974 363d cb36 cdbd
00000190: d992 9ebd 61ef 913d fa4c 553d 2344 ca3d
000001a0: 80ea aabc 00b4 11be d4dc 193e 40fc 00bd
000001b0: e430 1bbc a6bd 6fbd 4028 f03d 9f2e be3d
000001c0: 25f7 903d a7d1 e1bd 3f8b 9dbd acfa c1bd
000001d0: 8f76 bd3c e7b9 92bd 2a0b 98bd e940 ab3a
000001e0: d90e 6ebb 4136 26be bf16 76bc 6f10 203e
000001f0: ddde 263e 14ab 23bd a032 a8bd 8982 f33c
00000200: 37bb a63d c8c6 28bd a737 76bc acfb 2dbe
00000210: 72d9 193e 94a8 da3d dd8b f83d a335 113c
00000220: a2a0 8dbd 6ca7 e6bd 3f19 893d 8fd1 893b
00000230: 9840 cc3d b992 20be e5a9 d5bd bad1 f0bc
00000240: df3b d03d 99c3 7e3a cd6b 0a3e 73c9 18be
00000250: 71f8 52bd e193 373d 4275 003e 818c 49bd
00000260: 9dc7 ccbd adf8 1b3d 5941 8fbd e57f e13d
00000270: 6a28 323e 130e ce3d ba4d 003e e8af ee3d
00000280: 3d1e 4b3d a5df 3f3d 99a0 e33d bfc1 263d
00000290: b9be 903c a087 be3d 69bf a33d 7eab 29be
000002a0: b4a0 663c b65e e33d 3b71 7abd 313e f7bc
000002b0: 219c e13d 7a75 393e 30a8 3e3e af5e 2fbd
000002c0: 25cc 3ebc 3b10 5b3c 81eb f1bc 7f58 163e
000002d0: 097a 90bb 5c7a 13be 1f0f 0ebd ec0a 223e
000002e0: 3ee5 243e 9f58 413e b725 3f3e 5253 babd
000002f0: e13d 42bd 353c 5f3e f221 58bd ea65 40bd
00000300: b509 38bd 987b babd 10d9 223d 3807 133e
00000310: 629c f23d 1b60 ee3d 5d16 6f3d 5669 edbd
00000320: 2feb dbbc 59dc f63d 828d 08be 8490 f9bc
00000330: 76d6 da3d 4196 633d 6fc9 213e 12d2 193e
00000340: 0eaf 2ebe d65e ce3d df10 a93d 742d adbd
00000350: fd7c 18bb ac53 8b3d 4e48 803d 187d 01be
00000360: cf4a 09be d24e 123e 3dc3 bb3c 6832 a2bd
00000370: 4f35 c1bd 003a 76bd c410 353d ef64 4f3d
00000380: ef85 0fbe 7e02 8b3d b7f5 02be 93b3 b3bd
00000390: 07a9 1f3d 72f3 2b3d e6e0 1abe 5c6b 11be
000003a0: 27fa 86bd a17a 093e 2ba8 163b cc4a 403d
000003b0: e883 3c3d e625 dabd 4ed6 07be 08d1 a43d
000003c0: 6df0 f4bd 38c2 19be b960 c83d 4891 e83d
000003d0: 48a6 8dba 6cc1 b4bd 37cf f53d 9df1 06be
000003e0: 37fc 1abe 6b4c ecbd c394 c63c a92c ac3d
000003f0: 9af2 463d f859 503d ad6d d13b a456 44bc
-0.1656905 -0.044460874 -0.044834387 0.1572506 0.021923916 -0.16610396 0.12917778 -0.041898474
0.059005827 -0.16694154 0.13866182 -0.056625284 0.009637558 0.0062332842 -0.035235584 0.118497536
-0.07496009 -0.1640834 0.16519012 0.08712609 -0.05914302 0.082362644 -0.12594296 -0.010686977
-0.11311879 -0.11280452 -0.05325933 0.0087140575 0.05197688 0.099906154 0.17726944 -0.12569416
0.13624606 -0.14740086 0.14564677 0.06154622 0.005738279 -0.051913347 0.09548776 0.049730137
-0.12399295 -0.12957604 -0.12271915 0.15650482 0.13314402 -0.04894405 -0.1250973 -0.0126883015
0.10081401 -0.055146977 0.07521 -0.09372974 -0.128223 0.022821007 0.10661838 -0.099948645
0.062907994 -0.12873858 0.18010037 -0.106053956 -0.061857738 -0.0794028 -0.07062171 0.120935164
-0.13607247 0.036742557 -0.026318315 -0.06489341 -0.16958986 -0.16047542 0.13001455 0.0080103185
-0.07939827 -0.11369397 0.047850113 -0.0997963 -0.014449045 0.17080688 0.10056678 0.08537753
-0.10747612 0.080728225 0.093797676 0.12419065 0.1601805 -0.097420834 -0.06699966 -0.038020987
-0.17378089 -0.0977772 0.124496564 0.076901324 0.09251671 -0.14083521 -0.058288775 0.13411322
-0.00517437 -0.09520779 0.04454467 -0.100202166 -0.07742853 0.07125736 0.052075364 0.09876277
-0.020863771 -0.14228821 0.15025645 -0.031490564 -0.009472106 -0.058530472 0.11726427 0.09286236
0.07078389 -0.11026316 -0.07692575 -0.0947164 0.023127822 -0.07164364 -0.074240044 0.0013065609
-0.0036324768 -0.16231634 -0.0150200715 0.15631269 0.16295953 -0.039958075 -0.08212781 0.02972533
0.08141177 -0.041205198 -0.015027917 -0.16990536 0.15024355 0.10676685 0.12136052 0.008862886
-0.06915404 -0.11262402 0.066942684 0.0042058895 0.09973258 -0.1568097 -0.104327954 -0.02939688
0.101676695 0.00097184774 0.13517685 -0.14920597 -0.051506463 0.044818763 0.1254473 -0.04920626
-0.09999011 0.038078953 -0.06994886 0.11010722 0.17398229 0.10061278 0.1252965 0.11654645
0.049589384 0.046844143 0.11114616 0.040712114 0.017669069 0.09303212 0.07995493 -0.16569325
0.014076401 0.11102049 -0.06114314 -0.030181022 0.11016107 0.1811122 0.18618846 -0.042814907
-0.011645352 0.013370569 -0.029531242 0.14682196 -0.004409079 -0.14402145 -0.03468239 0.15824479
0.16103074 0.18881463 0.18666731 -0.09097923 -0.047422294 0.21800311 -0.052766748 -0.046972193
-0.044931132 -0.09105605 0.03975779 0.14358222 0.11846234 0.116394244 0.058370937 -0.11592357
-0.026845543 0.12053747 -0.13335231 -0.030464418 0.106854364 0.055563215 0.15799497 0.15021542
-0.17058966 0.10076682 0.08255171 -0.08455935 -0.0023267858 0.068030685 0.06263791 -0.12645376
-0.13407443 0.1428788 0.022920245 -0.079197705 -0.09433996 -0.060113907 0.044205442 0.050633367
-0.14015935 0.06787585 -0.12789045 -0.087744854 0.038979556 0.041980214 -0.15124854 -0.1420111
-0.065906815 0.13425685 0.002298842 0.04694633 0.046024233 -0.1065176 -0.13265345 0.08047682
-0.1195992 -0.15015495 0.097840734 0.11355835 -0.0010807002 -0.08825955 0.12002414 -0.13178106
-0.15135275 -0.11538013 0.024240857 0.08406956 0.048571207 0.05086705 0.006391248 -0.011983547

const_fold_opt__22 f4 [1536, 32]
00000000: 0fc4 20bb 03d5 ba3c 485e dcbb 40b0 e3bc
00000010: 7c6c fa3b 5885 0bbc fb56 cebc eea2 87bc
00000020: 2ca1 95bc f2b3 60bc 7762 b13b 4565 9f3c
00000030: a59c 813c 0dbb 82bc cc44 bfb9 b831 553b
00000040: f763 b63c f384 953b ecae a83c 7e4e d43a
00000050: 27cd d1bb 6bac e8bb 2e60 24bc 9084 27b9
00000060: c7e6 a03c 257a 6b3c 682c 86bc 949b 4fbc
00000070: 7fbf 133c a312 a7bc 0b0f 6abc 9061 5339
00000080: 8cb6 b9b9 8102 9abc 9bc6 263c 31da 043d
00000090: 60b4 a1bb 132d 063d c672 d43c 34ad d2ba
000000a0: 205a 50bb 6a63 023d 46cc 15bb c49b 93bc
000000b0: d252 41bc a321 bb3c 4323 41bc 64a3 8abc
000000c0: 48a2 b4ba 9f2f 0eb9 ed8c 24bc a116 f1bb
000000d0: 84a4 cd3b 31e5 a7bb f901 c73c 62bc 2cbc
000000e0: 6922 bfbb e16c 363b d7f9 713c 76df 283c
000000f0: 84e3 94bc 7b2d 9abb 4ecb be3b 6031 8abc
00000100: 597b acbc 6541 61bc 6f58 9a3a 727d dabc
00000110: 8a4a 823a d30f aabc 14fe 0c3d 00dd 33bd
00000120: 22ca d9bc 07cc 62bd ddf0 bfbc 1e1e b6bc
00000130: 9927 57bc cc75 05bd e5bb 4a3b 49c0 72bc
00000140: 619d c33b 9f9b 933c 72ed 033d a7cf 00bd
00000150: 25c3 5cbd c58c 823b fbcf d3bc cf66 683c
00000160: 5339 fbbb 9d7e 093c 64ce 113d a919 13bd
00000170: dc98 09bd 5d98 083d 1ba3 ebbc 5b55 30bd
00000180: 9878 ab3c bce5 b93b ef0b 87bb cbb7 313d
00000190: e9ef aebb b81b 3a3b 55a9 953b e853 b53c
000001a0: 32f9 65bc 211a 173c efb7 bc3b 4cb0 6c3c
000001b0: d614 b33c d54a 973b 81ef 9a3c c539 4d3b
000001c0: e0ae 623c 6264 d4bb e36f 90bc 9962 cd3c
000001d0: a19e 033d 941e 683b cd6f 3f3c 4500 80bc
000001e0: 3243 ee3a 966b b9bb c0ca 29bc a994 a539
000001f0: 5262 b13c 780f 78bc eabd 76bc 88a9 c1bc
00000200: f703 1ebb a597 09bc 4566 5dbc fb62 243d
00000210: 42c8 e53b 017c f4ba 08da 89bc bf46 e43c
00000220: 7ee4 863c 4471 5f3b 4914 93bc 5701 023c
00000230: 35da 023a 6be4 5f3c ee63 dcbc 9c56 9d3c
00000240: acff d03b 9e2b dbbc 5cac 133c ebc2 433c
00000250: f0f2 f93c 75db b83b 85da d63c f0d0 65bc
00000260: 0873 143d a8d8 8f3c 591f 0cbc 3692 d33c
00000270: 254c 913a 3d0a debc 3a59 ad3c eef0 403c
00000280: cc36 d6bc 33e1 853c 9225 993b 2490 8dbc
00000290: cf02 903c 544d 943c 860e e33a f4a4 d83b
000002a0: 99f1 61bc 14d6 a7bc f003 983c 3265 97bb
000002b0: f055 47bc 71e5 fa3b 9a38 0bbc f59d 9bbc
000002c0: 3a55 d43c 9878 d43c 41b1 39bc bfb7 5f3c
000002d0: 912e 6c3b 453e c83c 6e8a 98bc ab9c 923c
000002e0: 80a7 c83c 9407 7cbc 209f b43c 55ab bd3c
000002f0: 00a7 4fb9 9067 67ba c9cb d03a fbc9 093c
00000300: 852f 79bc c45a 9f3c 1d29 d5bc 455e 93bc
00000310: 24cc 57bc aa9f 6dbc 5053 9b3c dd97 02bd
00000320: 4f91 953c 8ddb a73b 168c f63a a762 51bb
00000330: e8eb abbb 7bb1 b23c 4281 be38 aef6 5f3c
00000340: 3453 09bb b816 a7bc 63dd 3b3c 32db 14bc
00000350: f580 5fbc 3db2 49bb cdf5 d43b 9343 b93c
00000360: a663 c2bb 5a2b cc3b dd9d 4fba 1025 29bc
00000370: ee94 e0bc f0f8 cb3c 1d01 e5bc 3c53 533b
00000380: 6b17 963b 27ed 773c 8951 b93c c97a 51bb
00000390: 6050 a33c b1db 4dbc f2fe 92bc 8d8c 93bb
000003a0: 83da 083c ddd1 943a 4af4 5abb 954e 8a3b
000003b0: 036b debc d9d0 44bc 1d9e a2bc ea20 953b
000003c0: aa9b 083c 24a8 f33a 54b6 a6bc a3b8 e4bb
000003d0: 4b91 0fbc 4025 1f3c f4b5 6ebb 844e 163a
000003e0: 940c d83a dd7f 003c 419e 77bc ffa5 30bc
000003f0: 6bbf 12bc 9dcf b9bc 2b7a 923b 36f9 9a3b
-0.0024530923 0.02280665 -0.0067251064 -0.027794003 0.007642327 -0.008515678 -0.02518796 -0.016557183
-0.01826533 -0.013714777 0.0054133493 0.019457469 0.015821764 -0.015958333 -0.00036481617 0.0032530855
0.022264464 0.004562968 0.020591222 0.0016197709 -0.00640263 -0.007100632 -0.010032697 -0.00015975744
0.019641293 0.014372383 -0.016378596 -0.01267137 0.009017824 -0.020394629 -0.014285813 0.00020158873
-0.00035421958 -0.018800022 0.010179187 0.032434646 -0.0049348325 0.03275783 0.025933634 -0.0016073347
-0.0031792 0.03183309 -0.0022857352 -0.01801861 -0.011799531 0.022843188 -0.011788192 -0.016923614
-0.0013781274 -0.00013559916 -0.010043365 -0.007357434 0.0062757153 -0.0051237573 0.024292933 -0.010542961
-0.0058329594 0.0027835893 0.014769039 0.0103071835 -0.018174894 -0.0047051287 0.0058225757 -0.016869247
-0.02105491 -0.013748501 0.0011775623 -0.026671145 0.0009940427 -0.020759499 0.034421995 -0.043911934
-0.026585642 -0.055370357 -0.023430282 -0.022231158 -0.013131999 -0.032583043 0.0030934748 -0.014816352
0.0059696888 0.018018542 0.032208867 -0.031448033 -0.05389704 0.003984066 -0.025856009 0.014184668
-0.0076667457 0.008392003 0.03559722 -0.035913143 -0.033593044 0.03334843 -0.028764298 -0.04305015
0.020931527 0.0056731384 -0.0041212956 0.04338817 -0.005338658 0.002839787 0.004567305 0.022134736
-0.014036464 0.009222538 0.0057592313 0.014446329 0.021860521 0.004617075 0.018913032 0.003131495
0.013835639 -0.006481693 -0.017631477 0.02507143 0.032133702 0.0035418617 0.01168437 -0.015625129
0.0018177985 -0.005658577 -0.010363281 0.00031582013 0.021653328 -0.015140407 -0.0150599275 -0.02364041
-0.002411125 -0.008397971 -0.0135131525 0.040133458 0.007012398 -0.0018652679 -0.016827598 0.027865766
0.016466375 0.0034094611 -0.017954009 0.00793489 0.0004991622 0.013665299 -0.026903119 0.019206338
0.0063781347 -0.026754197 0.009013262 0.0119483275 0.03051135 0.0056413957 0.026227245 -0.014026865
0.036242515 0.017559364 -0.008552396 0.025826555 0.0011085315 -0.027104491 0.02116071 0.011776192
-0.026149176 0.016342735 0.004673668 -0.017280646 0.017579464 0.01810328 0.0017323054 0.006611461
-0.0137905115 -0.020487823 0.018556565 -0.0046202177 -0.012166485 0.007656746 -0.008497382 -0.018996218
0.025919545 0.02593641 -0.0113337645 0.013654648 0.0036038498 0.024443755 -0.018620696 0.01789697
0.024493933 -0.015382666 0.022048533 0.023152987 -0.0001980327 -0.00088273827 0.0015929873 0.008409972
-0.015209083 0.01945246 -0.02602058 -0.017989287 -0.0131712295 -0.014503399 0.018960625 -0.03188311
0.018257765 0.005122608 0.0018810059 -0.003194967 -0.005246628 0.021813145 9.083982e-05 0.013669653
-0.0020954134 -0.020396575 0.011466357 -0.009085463 -0.013641586 -0.0030776404 0.0064990283 0.02261523
-0.005932289 0.006230754 -0.0007919947 -0.010323778 -0.027414765 0.024898976 -0.027954632 0.0032245656
0.0045804284 0.015132225 0.022621887 -0.0031964055 0.019935787 -0.012564586 -0.017943833 -0.004502839
0.0083528785 0.0011354048 -0.0033409768 0.0042207935 -0.027150637 -0.012012684 -0.019850785 0.004551043
0.008337894 0.0018589539 -0.020350613 -0.006980018 -0.008762668 0.009713471 -0.003642437 0.00057337456
0.0016483241 0.007842985 -0.015113414 -0.010781764 -0.00895677 -0.022682006 0.00447013 0.0047294153

const_fold_opt__20 f4 [32, 1]
00000000: 823f b7be 65cf 8d3d 0503 aabe 2227 b4be
00000010: 9b81 a9be 07a4 c23d b46a 453e fe32 6dbd
00000020: bc29 1a3e 62c7 b7be ee54 763e ab8e f33d
00000030: e178 4c3e 7d3b 55bd 8d8e 893e c019 c3be
00000040: eff4 b0be 8578 aabd 2605 e7bd 6638 1fbd
00000050: 70d1 ecbd 5324 4abd 6c2f 96be 69bb 623e
00000060: 6bc3 fe3d f16f 753c cad8 803e a7ab ca3d
00000070: c2c1 203e e978 2e3e 880f b5be d0d5 f33d
-0.3579064 0.06924323 -0.3320543 -0.35186106 -0.33106694 0.09503942 0.19278985 -0.057909958
0.15054983 -0.35894305 0.24055836 0.11892446 0.19967987 -0.052058686 0.2686657 -0.38105583
-0.3456187 -0.083237685 -0.11280279 -0.038872145 -0.115633845 -0.049351048 -0.29333055 0.22141804
0.12439617 0.014980302 0.25165397 0.09896021 0.15698913 0.17038311 -0.35363412 0.11906016

Const_7 f4 [32]
00000000: 224f 693e b480 993b 6122 7e3e 54e7 703e
00000010: cc1c 7b3e 9c2c 983d 3b53 493c 5eab debc
00000020: 0be5 923c 88a6 6d3e 1ba9 383d 9916 b03b
00000030: ffc8 c33c 0e50 13bc b2ce 5a3d e76e 753e
00000040: bedf 683e bdf3 3f3c 308d 833a ea2b 243c
00000050: c17e 18bd 76d6 d8bb 8d42 8b3e 8ebb 093d
00000060: 2e41 3aba 402d 87bb 69ed 773d b1dd bb3c
00000070: ed32 a13c 0467 4c3c 75cf 683e 2289 0c3c
0.22784093 0.004684532 0.24817802 0.23525745 0.24522704 0.074303836 0.01228791 -0.027181324
0.017931482 0.23208058 0.045083147 0.0053737876 0.023899553 -0.0089912545 0.053419776 0.23968087
0.22741601 0.011715827 0.0010036584 0.010020236 -0.037230257 -0.0066173626 0.27199212 0.03362613
-0.00071050494 -0.0041252673 0.060529146 0.02293286 0.019677604 0.012475733 0.22735389 0.008577617

Const_6 f4 [32]
00000000: 4704 9d3f c34a 803f 8f28 a33f db6b 9e3f
00000010: f10e a23f e6c1 8b3f 4950 823f eca7 763f
00000020: d2df 833f 4c10 9d3f bf17 893f ce71 803f
00000030: b74a 873f ccdf 7d3f 0e59 8d3f 29b0 9f3f
00000040: 213e 9c3f 68ab 803f 99fa 7f3f 0ee6 803f
00000050: c755 783f fab9 7e3f 6560 a83f 1d22 873f
00000060: d127 803f 747d 7f3f fb72 8a3f b613 843f
00000070: 4b53 833f 4e70 813f 37b7 9b3f 810b 813f
1.226693 1.0022815 1.2746753 1.2376665 1.266081 1.0918548 1.0180751 0.9634998
1.030268 1.2270598 1.0710372 1.003473 1.0569676 0.9916961 1.1042802 1.2475635
1.220646 1.0052309 0.99991757 1.0070207 0.97005886 0.9950253 1.3154417 1.0557286
1.0012151 0.998008 1.0816339 1.0318515 1.0259794 1.0112398 1.2165288 1.0081636

Const_5 f4 [32]
00000000: b75b 143e 374d 96bd b902 263e a773 0cbe
00000010: 9dfa 0fbe 63b0 56bd 9a55 69bd 51bc 203e
00000020: 9d31 fcbc bed2 b6bc 1402 53bd be91 b23d
00000030: cd17 54bc e1c6 06be 160f d0bc cbf7 d9bd
00000040: 0412 3fbc 11fd e3bd 9247 d23c c45d dcbb
00000050: 13ee 70bd 0254 0d3e 0546 02bd a10d 163d
00000060: f295 d73d 4d77 703d 6d15 29bd 5f3b 9abd
00000070: 19ec 91bd dfac ca3d e1ce 88bd 9b38 dfbd
0.14488111 -0.07338946 0.16211976 -0.13715993 -0.14060445 -0.05241431 -0.0569664 0.15696837
-0.030785376 -0.022317287 -0.051515654 0.08719204 -0.012945128 -0.13161804 -0.025397819 -0.10642966
-0.01166201 -0.11132253 0.025668893 -0.006725045 -0.058820795 0.13801578 -0.031805057 0.03663409
0.10526647 0.058707524 -0.0412802 -0.075308554 -0.0712511 0.09896254 -0.06680084 -0.108994685

Const_3 f4 [32]
00000000: 4e4d 02bc 3875 0dbc 13c2 08bc 6e09 dc3c
00000010: 0883 24bc dd86 25bc a140 943b 8662 1ebc
00000020: ac45 2cbc 888b 533c ae78 13bc a620 d9bb
00000030: b9b1 fdbc 8c67 e9bc 6c72 8ebb 5acb 73bc
00000040: 78ae 373c 3755 013c 638f 8c3b 60ee 82bb
00000050: 59c7 bb3b 462f 493b bb07 ecbb 1e49 e3bb
00000060: 358d a3bc 850b 16bb 337a d43b c86c 3ebd
00000070: 393c bb39 e9e9 81ba e67f fdb8 a8cb e5bb
-0.007953001 -0.008633904 -0.008347052 0.026859965 -0.010041006 -0.010102955 0.004524306 -0.0096670445
-0.010514658 0.012911685 -0.00900094 -0.0066262065 -0.030968534 -0.028491758 -0.0043471362 -0.014880026
0.01121103 0.007893852 0.004289554 -0.0039957017 0.005730551 0.0030698343 -0.00720307 -0.0069362065
-0.019964794 -0.002289505 0.006484294 -0.04649046 0.0003571229 -0.000991163 -0.00012087803 -0.007012803

Const_2 f4 [32]
00000000: 9207 7e3f b337 7d3f 73dc 7e3f ff74 843f
00000010: 5534 7f3f 021d 803f d945 813f 2ccd 7c3f
00000020: 1e7d 7e3f db52 833f 56a0 7e3f c789 7f3f
00000030: f1a0 7a3f 006f 773f 96eb 7a3f 9b37 7e3f
00000040: 89ce 7b3f 522c 823f 652a 833f 0433 803f
00000050: 5e55 833f 00a6 7b3f af21 7f3f a3d6 743f
00000060: 69da 7c3f a74a 7a3f b4aa 813f 08ee 793f
00000070: f1c2 813f ca7f 7d3f a637 7f3f bc82 7e3f
0.992303 0.98913115 0.9955513 1.0348204 0.9968923 1.0008852 1.0099441 0.9875057
0.99409664 1.025966 0.99463403 0.99819607 0.9790183 0.9665375 0.98015726 0.993036
0.9836202 1.0169775 1.0247313 1.0015569 1.0260427 0.9830017 0.9966077 0.9564001
0.9877077 0.9777016 1.013022 0.9762883 1.0137616 0.99023116 0.9969429 0.99418235

Const_1 f4 [32]
00000000: e869 a53c 21f1 3abc e129 3b3c 7a79 81bc
00000010: abc4 19ba be27 2cbc bcf7 bfba cc5d 7cbc
00000020: 497c 9dbb 7bcf a63c eaec 0b3c 0ad9 0ebc
00000030: dbc5 d5bc be99 8cbb 728f 44bc 0af8 8b3c
00000040: ded2 38bb 2255 8f3c b002 8bbc 393d 74bc
00000050: c648 21bc 1280 a4bb 5113 44ba fd05 7ebb
00000060: a261 9fbb 3ad7 13bb b64f 48bc 1017 303a
00000070: c002 b43b 1214 1bbb 9387 dfba 77d7 f2bc
0.020192102 -0.011410029 0.011423559 -0.015804995 -0.00058657926 -0.010507522 -0.0014645974 -0.015403222
-0.0048060757 0.020362606 0.008540371 -0.008718738 -0.026095321 -0.0042907884 -0.011997091 0.017086048
-0.0028201859 0.01749665 -0.016969055 -0.014907175 -0.009844011 -0.00502015 -0.0007479685 -0.0038760894
-0.0048639337 -0.0022558705 -0.012226036 0.0006717304 0.005493492 -0.0023663086 -0.0017053954 -0.029643757
